…
I tensorflow/core/common_runtime/gpu/gpu_device.cc:975] Creating TensorFlow device (/gpu:0) -> (device: 0, name: GeForce GTX 1070, pci bus id: 0000:01:00.0)
-=-=-=-=-=-=-=-=-=-=-=-=-=-=-=-=-=-=-=-=-=-=-=-=-=-=-=-=-=-=-=-=-=-=-=-=-=-=-=-=
  Training samples: 9351
 With augmentation: 56106
Validation samples: 16072
-=-=-=-=-=-=-=-=-=-=-=-=-=-=-=-=-=-=-=-=-=-=-=-=-=-=-=-=-=-=-=-=-=-=-=-=-=-=-=-=
____________________________________________________________________________________________________
Layer (type)                     Output Shape          Param #     Connected to                     
====================================================================================================
start (InputLayer)               (None, 160, 320, 3)   0                                            
____________________________________________________________________________________________________
crop (Cropping2D)                (None, 70, 320, 3)    0           start[0][0]                      
____________________________________________________________________________________________________
normalize (Lambda)               (None, 70, 320, 3)    0           crop[0][0]                       
____________________________________________________________________________________________________
dropout_0 (Dropout)              (None, 70, 320, 3)    0           normalize[0][0]                  
____________________________________________________________________________________________________
conv_5_1 (Convolution2D)         (None, 35, 160, 24)   1824        dropout_0[0][0]                  
____________________________________________________________________________________________________
conv_5_2 (Convolution2D)         (None, 18, 80, 36)    21636       conv_5_1[0][0]                   
____________________________________________________________________________________________________
conv_5_3 (Convolution2D)         (None, 9, 40, 48)     43248       conv_5_2[0][0]                   
____________________________________________________________________________________________________
conv_3_1 (Convolution2D)         (None, 7, 38, 64)     27712       conv_5_3[0][0]                   
____________________________________________________________________________________________________
conv_3_2 (Convolution2D)         (None, 5, 36, 64)     36928       conv_3_1[0][0]                   
____________________________________________________________________________________________________
flatten (Flatten)                (None, 11520)         0           conv_3_2[0][0]                   
____________________________________________________________________________________________________
dense_1 (Dense)                  (None, 100)           1152100     flatten[0][0]                    
____________________________________________________________________________________________________
batchnormalization_1 (BatchNorma (None, 100)           400         dense_1[0][0]                    
____________________________________________________________________________________________________
activation_1 (Activation)        (None, 100)           0           batchnormalization_1[0][0]       
____________________________________________________________________________________________________
dropout_1 (Dropout)              (None, 100)           0           activation_1[0][0]               
____________________________________________________________________________________________________
dense_2 (Dense)                  (None, 50)            5050        dropout_1[0][0]                  
____________________________________________________________________________________________________
batchnormalization_2 (BatchNorma (None, 50)            200         dense_2[0][0]                    
____________________________________________________________________________________________________
activation_2 (Activation)        (None, 50)            0           batchnormalization_2[0][0]       
____________________________________________________________________________________________________
dropout_2 (Dropout)              (None, 50)            0           activation_2[0][0]               
____________________________________________________________________________________________________
dense_3 (Dense)                  (None, 10)            510         dropout_2[0][0]                  
____________________________________________________________________________________________________
batchnormalization_3 (BatchNorma (None, 10)            40          dense_3[0][0]                    
____________________________________________________________________________________________________
activation_3 (Activation)        (None, 10)            0           batchnormalization_3[0][0]       
____________________________________________________________________________________________________
dropout_3 (Dropout)              (None, 10)            0           activation_3[0][0]               
____________________________________________________________________________________________________
steering_prediction (Dense)      (None, 1)             11          dropout_3[0][0]                  
====================================================================================================
Total params: 1,289,659
Trainable params: 1,289,339
Non-trainable params: 320
____________________________________________________________________________________________________
Epoch 1/25
I tensorflow/core/common_runtime/gpu/gpu_device.cc:975] Creating TensorFlow device (/gpu:0) -> (device: 0, name: GeForce GTX 1070, pci bus id: 0000:01:00.0)
…
